(speaker-recognition) ✔ ~/work/projects/speaker-recognition/code [master|⚑ 1] 
09:43 $ python cnn_train.py 
_________________________________________________________________
Layer (type)                 Output Shape              Param #   
=================================================================
conv2d_1 (Conv2D)            (None, 20, 196, 16)       160       
_________________________________________________________________
max_pooling2d_1 (MaxPooling2 (None, 10, 98, 16)        0         
_________________________________________________________________
batch_normalization_1 (Batch (None, 10, 98, 16)        64        
_________________________________________________________________
conv2d_2 (Conv2D)            (None, 10, 98, 32)        4640      
_________________________________________________________________
max_pooling2d_2 (MaxPooling2 (None, 5, 49, 32)         0         
_________________________________________________________________
batch_normalization_2 (Batch (None, 5, 49, 32)         128       
_________________________________________________________________
conv2d_3 (Conv2D)            (None, 5, 49, 64)         18496     
_________________________________________________________________
max_pooling2d_3 (MaxPooling2 (None, 2, 24, 64)         0         
_________________________________________________________________
batch_normalization_3 (Batch (None, 2, 24, 64)         256       
_________________________________________________________________
flatten_1 (Flatten)          (None, 3072)              0         
_________________________________________________________________
dropout_1 (Dropout)          (None, 3072)              0         
_________________________________________________________________
dense_1 (Dense)              (None, 2432)              7473536   
_________________________________________________________________
batch_normalization_4 (Batch (None, 2432)              9728      
_________________________________________________________________
dropout_2 (Dropout)          (None, 2432)              0         
_________________________________________________________________
dense_2 (Dense)              (None, 1216)              2958528   
=================================================================
Total params: 10,465,536
Trainable params: 10,460,448
Non-trainable params: 5,088
_________________________________________________________________
None
Train on 58854 samples, validate on 3270 samples
Epoch 1/32
58854/58854 [==============================] - 480s 8ms/step - loss: 3.7762 - acc: 0.7402 - val_loss: 2.7140 - val_acc: 0.8202
…
